…
ch1_res60x240_octaves_fft1250_overlap625_resampleNone_t_svdadult_v_svdadult_balanced_False configuration already existing, skipping dataset creation...
Exited data_pipeline....
Loading datasets....
Found 1098 files belonging to 2 classes.
Train set loaded
Found 275 files belonging to 2 classes.
Validation set loaded
Sets transformed...
Model.. /Users/honzamichna/Documents/GitHub/michna_fnkv/src/cnn/models/2conv_2x4_best/cnn_2conv2x4_filters_80_dropout_30_maxpool1x2_strides1x1_gap.py
Model: "sequential"
_________________________________________________________________
 Layer (type)                Output Shape              Param #   
=================================================================
 conv2d (Conv2D)             (None, 60, 240, 80)       720       
                                                                 
 batch_normalization (Batch  (None, 60, 240, 80)       320       
 Normalization)                                                  
                                                                 
 max_pooling2d (MaxPooling2  (None, 60, 239, 80)       0         
 D)                                                              
                                                                 
 conv2d_1 (Conv2D)           (None, 60, 239, 80)       51280     
                                                                 
 batch_normalization_1 (Bat  (None, 60, 239, 80)       320       
 chNormalization)                                                
                                                                 
 max_pooling2d_1 (MaxPoolin  (None, 60, 238, 80)       0         
 g2D)                                                            
                                                                 
 dropout (Dropout)           (None, 60, 238, 80)       0         
                                                                 
 global_average_pooling2d (  (None, 80)                0         
 GlobalAveragePooling2D)                                         
                                                                 
 dense (Dense)               (None, 1)                 81        
                                                                 
=================================================================
Total params: 52721 (205.94 KB)
Trainable params: 52401 (204.69 KB)
Non-trainable params: 320 (1.25 KB)
_________________________________________________________________
Epoch 1/10
 1/69 [..............................] - ETA: 1:07 - loss: 0.0244 - accuracy:
…
